results/model_adversarial.pth (torch, 96013 bytes, 5 tensors)

layer1.weight f4 [128, 115]
-0.19866231 0.038071986 0.012473573 -0.18673722 -0.003946489 -0.6476538 -0.05621633 0.011960082
0.0077923723 -0.05576422 0.026120482 -0.031882428 -0.14554834 0.008420841 0.008237561 0.08908555
-0.1936206 -0.28565496 0.13627145 0.093929134 -0.045057572 0.3783137 -0.025835566 -0.26340216
0.14643414 0.032241743 -0.090562254 -0.84265906 0.04301047 -0.8886707 -0.7026053 -0.057513494
-0.02034154 0.09595928 -0.47033817 0.047338225 -0.025116567 0.005363656 -0.3339525 -0.01538596
-0.057900123 -0.03654926 -0.06408458 0.0147914 -0.039062105 0.07833424 -0.35833022 0.006472016
0.16635591 -0.5050455 -0.034963198 0.018021613 -0.03215752 -0.21058126 0.02415562 -0.088909596
0.006928089 -0.021036338 -0.17151342 0.01936853 -0.015323916 0.021918878 -0.04154135 -0.010601334
-0.024533175 -0.013172368 -0.019152025 -0.020399576 -0.028804163 -0.030048234 -0.021277023 -0.009439773
-0.009490049 -0.045195837 -0.029278476 -0.0063011413 -0.018276326 -0.15692449 0.30497155 -0.014447074
-0.0031926953 -0.19454113 -0.0072862213 -0.5500291 -0.009577987 -0.010045833 -0.06044027 -0.048100945
-0.4446431 0.0050590537 -0.00085951487 0.00448388 0.0015990537 -0.0078927325 -0.0816569 0.015556186
-0.030073619 -0.05412231 -0.04327541 -0.23086898 -0.022848314 -0.03894095 -0.0053695715 -0.05134511
-0.14332016 -0.23322587 -0.20036472 -0.021043241 -0.22420515 0.16427097 -0.02035037 -0.034767527
-0.019171843 -0.025544157 -0.07257109 -0.07241803 0.0031887586 0.077365875 0.0018492243 -0.007553022
-0.15347295 -0.0049213623 0.032576375 0.009944795 -0.08004235 0.12236185 0.037104502 0.036013033
-0.10438014 0.081818976 -0.056419022 -0.009713221 -0.5308412 -0.21628074 0.2717746 0.29835027
0.23167466 -0.028306618 -0.23895207 -0.16937268 -0.16663647 -0.19168529 -0.22352876 0.17009631
-0.07452103 -0.24886948 -0.086363934 0.04444 -0.04369826 -0.29049087 -0.28309137 -0.010016226
-0.037403364 -0.19269387 -0.012237712 -0.01655147 -0.063512854 0.027018726 0.03395574 0.0542823
0.13483931 -0.022293553 -0.025139032 0.095175065 -0.12346946 -0.058084518 0.011517253 -0.3084905
-0.2157686 0.283181 0.005245039 -0.07415509 -0.0066542313 -0.2687741 -0.03483147 0.072094545
-0.007152151 -0.08374287 0.011758618 -0.045310218 -0.0073717623 -0.016026163 -0.051204916 -0.011071378
-0.06831017 0.030239146 -0.005431715 0.022452556 -0.021260735 0.045399934 -0.085822746 -0.014761347
-0.0021051522 0.10452876 -0.059699055 -0.029741205 -0.090686254 -0.02229428 -0.15368006 -0.004855817
-0.0778458 -0.08879417 -0.15520118 0.38571575 -0.021678664 -0.0070554675 -0.04074014 -0.05814305
-0.02930241 -0.8552542 -0.024469933 -0.03220917 -0.05785597 0.0014333155 -0.4043908 -0.01739052
-0.07409429 -0.022954391 0.0005588385 0.026205907 -0.04966825 -0.21797124 -0.0359251 0.025431106
-0.30206048 -0.24326405 0.2731782 0.1553198 0.017649379 -0.14502785 -0.051998034 0.051405184
0.013562937 -0.2808343 -0.00010317541 0.14695257 -0.036996376 0.0061707846 -0.02216872 0.06719275
-0.12710503 -0.03065328 0.08911417 -0.072793804 0.050490245 -0.100227565 -0.13339426 -0.13477069
-0.11893978 -0.15005443 0.34262714 -0.1960492 -0.034243345 0.01920644 0.15699036 -0.2924977
00000000: 226e 4bbe 5ff1 1b3d f55d 4c3c 0b38 3fbe
00000010: 8d51 81bb a4cc 25bf 1843 66bd 38f4 433c
00000020: 2857 ff3b 0669 64bd 9ffa d53c 2697 02bd
00000030: a00a 15be 91f7 093c d6f6 063c 7c72 b63d
00000040: 7b44 46be 5e41 92be be8a 0b3e eb5d c03d
00000050: 4a8e 38bd 55b2 c13e 1ca5 d3bc a6dc 86be
00000060: d5f2 153e eb0f 043d b478 b9bd 81b8 57bf
00000070: bf2b 303d ec7f 63bf f1dd 33bf 4593 6bbd
00000080: 4da3 a6bc 4d86 c43d 2ad0 f0be bae5 413d
00000090: 42c1 cdbc 9cc1 af3b d2fb aabe 6515 7cbc
000000a0: ae28 6dbd adb4 15bd c73e 83bd a157 723c
000000b0: 96ff 1fbd b46d a03d 0f77 b7be 3513 d43b
000000c0: 3459 2a3e a94a 01bf 9235 0fbd 10a2 933c
000000d0: 9bb7 03bd 9da2 57be 02e2 c53c 3c16 b6bd
000000e0: 0605 e33b 6654 acbc 37a1 2fbe c0aa 9e3c
000000f0: 2a11 7bbc 388f b33c 4327 2abd 38b1 2dbc
00000100: ccf9 c8bc ead0 57bc b5e4 9cbc 031d a7bc
00000110: b5f6 ebbc b727 f6bc 274d aebc 47a9 1abc
00000120: 277c 1bbc 451f 39bd 6ad9 efbc ce79 cebb
00000130: 3cb8 95bc d0b0 20be 3b25 9c3e 6cb3 6cbc
00000140: 8a3c 51bb ca35 47be 41c1 eebb b5ce 0cbf
00000150: fdec 1cbc 4797 24bc 3790 77bd 7f05 45bd
00000160: 43a8 e3be 6bc6 a53b 1151 61ba 83ed 923b
00000170: 5797 d13a 8550 01bc bc3b a7bd 60df 7e3c
00000180: f35c f6bc 5baf 5dbd 8e41 31bd eb68 6cbe
00000190: 632c bbbc 8c80 1fbd 3bf3 afbb 404f 52bd
000001a0: 85c2 12be c3d2 6ebe 692c 4dbe e062 acbc
000001b0: 0996 65be a636 283e d2b5 a6bc 6568 0ebd
000001c0: 450e 9dbc fb41 d1bc 27a0 94bd e74f 94bd
000001d0: 7efa 503b 0072 9e3d ac61 f23a 577f f7bb
000001e0: 0328 1dbe 6143 a1bb ce6e 053d 7eef 223c
000001f0: 3eed a3bd da98 fa3d e4fa 173d 6782 133d
00000200: 41c5 d5bd b590 a73d a217 67bd 3424 1fbc
00000210: 35e5 07bf b378 5dbe 0a26 8b3e 5ec1 983e
00000220: 1f3c 6d3e 48e3 e7bc daaf 74be 0870 2dbe
00000230: c0a2 2abe 2649 44be b9e4 64be ba2d 2e3e
00000240: 7b9e 98bd a4d7 7ebe 93df b0bd b806 363d
00000250: f2fc 32bd 38bb 94be 5af1 90be 191b 24bc
00000260: 4534 19bd 8b51 45be af80 48bc f396 87bc
00000270: 0713 82bd 6056 dd3c 2d15 0b3d 1e57 5e3d
00000280: 5113 0a3e f8a0 b6bc 5ff0 cdbc 25eb c23d
00000290: 8edd fcbd 08ea 6dbd dcb2 3c3c 78f2 9dbe
000002a0: 72f2 5cbe 1afd 903e 93de ab3b a0de 97bd
000002b0: bd0b dabb c29c 89be 72ab 0ebd 4ea6 933d
000002c0: 975c eabb 6281 abbd 38a7 403c 3597 39bd
000002d0: d38e f1bb 4d49 83bc 3fbc 51bd ba64 35bc
000002e0: 34e6 8bbd 16b8 f73c 87fc b1bb 6cee b73c
000002f0: fe2a aebc 48f5 393d d6c3 afbd 94d9 71bc
00000300: 98f6 09bb 2d13 d63d ff86 74bd d4a3 f3bc
00000310: b7b9 b9bd 7ea2 b6bc 4e5e 1dbe 8c1d 9fbb
00000320: 9e6d 9fbd b8d9 b5bd 0fed 1ebe 897c c53e
00000330: 7497 b1bc 8d31 e7bb 22df 26bd 6827 6ebd
00000340: 9c0b f0bc f0f1 5abf 2b75 c8bc c3ed 03bd
00000350: 62fa 6cbd 16de bb3a 500c cfbe 9076 8ebc
00000360: bfbe 97bd d90a bcbc 047f 123a c5ad d63c
00000370: ef70 4bbd da33 5fbe 3326 13bd e554 d03c
00000380: aca7 9abe 361a 79be 03de 8b3e 270c 1f3e
00000390: 6e95 903c 2e82 14be e4fb 54bd 3e8e 523d
000003a0: 1537 5e3c 83c9 8fbe e05f d8b8 bc7a 163e
000003b0: 8389 17bd 4b34 ca3b 2d9b b5bc 5a9c 893d
000003c0: d227 02be 961c fbbc 7d81 b63d eb14 95bd
000003d0: dcce 4e3d 1c44 cdbd 8198 08be 5401 0abe
000003e0: b396 f3bd dea7 19be d36c af3e 1fc1 48be
000003f0: c042 0cbd d356 9d3c 15c2 203e 42c2 95be

layer1.bias f4 [128]
0.11418912 0.09178847 0.056545135 -0.1376836 -0.2066756 -0.2311024 -0.28117186 0.07721537
-0.21756354 -0.22995606 0.07283135 -0.0024856313 0.029360242 -0.08136145 -0.07436328 0.16117775
-0.03999303 -0.13675785 -0.098762766 -0.018586108 -0.057337794 -0.17636544 -0.062452827 -0.18550794
-0.1302214 0.00053208455 -0.019122832 0.005758162 0.12352803 0.15298049 -0.03417241 -0.12848315
-0.18938935 -0.25230578 0.037243832 -0.09337457 -0.05977713 -0.17427188 -0.18664892 0.19260308
-0.005133035 -0.063255005 -0.033132948 -0.14753312 -0.028080594 0.003892882 -0.16746224 -0.13365291
-0.100009486 -0.023409937 -0.037080985 -0.06442279 0.063666224 0.19709146 -0.26962402 -0.24281959
-0.121324055 -0.42760497 -0.03868611 0.052302666 -0.22332065 0.011943225 0.003541022 -0.1296998
-0.022792133 0.012819643 -0.13798009 -0.012044704 -0.18034223 0.00424368 0.14344195 0.0060457345
0.2851477 -0.28407237 -0.061809473 -0.054380383 -0.0027399473 -0.12530316 -0.17163809 -0.31045702
-0.023122054 -0.070666604 -0.029406613 -0.17718332 -0.21293476 -0.047941964 -0.23857953 0.028605605
-0.10045066 -0.17330772 -0.28786615 -0.08289055 -0.04212019 -0.091167755 0.117611684 0.11440342
-0.16831431 -0.101197824 -0.24351859 -0.19417454 -0.08472799 -0.033336516 -0.045869242 -0.10357181
0.12210126 -0.28655452 0.19471665 -0.06314951 -0.26523724 0.09597655 -0.19175474 -0.016230972
-0.03359163 0.15221673 -0.062163584 -0.043409422 -0.052988887 0.024204321 -0.11711663 -0.12571616
-0.10431799 -0.23467606 -0.1940371 -0.011162617 -0.061003402 -0.079684965 -0.19070925 0.05177299
00000000: fcdb e93d 98fb bb3d df9b 673d eefc 0cbe
00000010: c5a2 53be 1ca6 6cbe c2f5 8fbe 1823 9e3d
00000020: fac8 5ebe 9a79 6bbe 9a28 953d f9e5 22bb
00000030: e484 f03c d5a0 a6bd c64b 98bd c80b 253e
00000040: bbcf 23bd 400a 0cbe 2244 cabd e541 98bc
00000050: 09db 6abd 2499 34be 89ce 7fbd cbf5 3dbe
00000060: c258 05be 977b 0b3a 7ca7 9cbc f7ae bc3b
00000070: 44fc fc3d eba6 1c3e 5ef8 0bbd 1691 03be
00000080: 48ef 41be 392e 81be fd8c 183d 2b3b bfbd
00000090: ddd8 74bd 5474 32be e520 3fbe be39 453e
000000a0: 0533 a8bb d78b 81bd 6ab6 07bd ec12 17be
000000b0: 4609 e6bc b91f 7f3b 397b 2bbe 4fdc 08be
000000c0: c6d1 ccbd 32c6 bfbc 3be2 17bd 19f0 83bd
000000d0: 7063 823d 58d2 493e 290c 8abe b3a5 78be
000000e0: bf78 f8bd 0aef dabe 5475 1ebd 523b 563d
000000f0: 2bae 64be 84ad 433c 7e10 683b 06d0 04be
00000100: 91b6 babc 7b09 523c a74a 0dbe 2657 45bc
00000110: a2ab 38be 910e 8b3b 72e2 123e 4c1b c63b
00000120: e1fe 913e ef71 91be ee2b 7dbd f7bd 5ebd
00000130: b090 33bb 794f 00be e5c1 2fbe 39f4 9ebe
00000140: 766a bdbc a7b9 90bd 23e6 f0bc 8b6f 35be
00000150: 920b 5abe cb5e 44bd 314e 74be 4d56 ea3c
00000160: 13b9 cdbd 9477 31be 3163 93be 85c2 a9bd
00000170: 3886 2cbd 29b6 babd 65de f03d 574c ea3d
00000180: 965a 2cbe ce40 cfbd f05c 79be b1d5 46be
00000190: de85 adbd df8b 08bd 63e1 3bbd 751d d4bd
000001a0: 3a10 fa3d 46b7 92be cd63 473e 8854 81bd
000001b0: 2dcd 87be 5a8f c43d 5b5b 44be d1f6 84bc
000001c0: 6197 09bd b4de 1b3e 3e9f 7ebd 14ce 31bd
000001d0: e00a 59bd 2448 c63c d8da efbd bdbb 00be
000001e0: aca4 d5bd ec4e 70be a9b1 46be 69e3 36bc
000001f0: b4de 79bd df31 a3bd 4949 43be ea0f 543d

layer2.weight f4 [64, 128]
0.1615612 0.054052014 -0.0070898747 -0.08156305 -0.52528113 -0.20202309 -0.37894675 -0.47565266
0.13824992 0.2652971 -0.025413731 -0.1059201 -0.029604357 -0.19605784 -0.058099635 0.011264579
-0.090665355 0.47228882 0.34336424 -0.3681514 0.23679335 0.31894448 0.08534181 0.045519307
-0.052174874 -0.023621233 -0.3926177 0.13623744 0.09730682 -0.16316551 -0.72402406 -0.47570434
0.0018498268 -0.21398658 0.2816207 -0.63634485 -0.3936469 -0.25098258 -0.09151658 -0.06633736
-0.05101151 -0.070660084 0.033571392 -0.04880622 0.13352874 0.32863498 -0.3651794 -0.24104114
0.049349062 0.118094645 -0.36482576 -0.94410473 -0.4034638 -0.052939065 -0.112337515 -0.3487424
-0.15184563 0.7736962 0.18524662 0.07108874 -0.055218246 0.114478394 -0.5984926 -0.41894606
0.17551312 0.4575093 -0.16444114 -0.08619888 -0.42023528 -0.059688643 0.104867116 0.07245951
0.036035635 0.74058485 -0.38704884 -0.9295042 -0.1391296 -0.16465072 0.24570793 0.035672393
0.17525822 -0.06528652 0.38788408 -0.9792054 -0.18859383 0.07577501 0.04330848 -0.68255883
-0.63140327 0.096825905 -0.06415526 -0.06803468 -0.027159167 0.09642221 -0.083059795 -0.102104016
0.25453877 -0.40028808 -0.29604715 0.34581032 -0.090343475 -0.35833952 -0.48525274 -0.037092976
-0.017821409 -0.05354539 0.4407751 0.24384019 -0.118703246 -0.09918599 0.4034677 -0.5666922
-0.623578 0.18978526 0.06893178 -0.561071 0.04455321 0.27816007 -0.45498818 -0.22561443
-0.47039813 -0.32943657 0.41551456 -0.39406547 0.025750931 0.16977875 0.09404359 0.10648842
-0.4696155 -0.34898898 -0.31911778 -0.0049782093 0.015960062 0.07892655 0.41161796 0.28257596
0.17727348 -0.19452362 0.03644078 0.005456753 -0.7226482 0.014988713 -0.36597738 -0.17502993
-0.20891047 -1.0071354 -1.0002476 0.10740828 -0.07136089 -0.46451455 0.22455569 -0.031779274
0.009339389 0.21701497 0.42018607 -0.04966367 -0.60011417 -0.44062304 0.41756636 0.42331678
0.41370207 0.3214766 -0.33175656 0.0894668 0.30871555 0.40897724 -0.0055681793 -0.23034322
-0.3227415 0.048450544 -0.16817495 0.21277073 -0.009492582 -0.083302334 -2.809621e-05 0.3377619
-0.033187658 -0.3431055 0.092269875 0.24015747 -0.24348994 -0.29350114 0.34752673 0.2955592
0.17841105 -0.28307325 -0.0095519675 -0.4463109 0.058668435 -0.15384859 -0.059716545 0.29931128
-0.02971719 -0.10970255 0.21493575 0.0038425904 0.44622496 0.05743623 -0.33794892 -0.31297427
-0.9237247 -0.3653106 0.089758195 0.09807578 0.06692004 0.38465002 0.011513454 0.17812982
-0.25587475 -0.048205283 -0.50973505 -0.022054475 0.4199399 0.056171823 0.28312987 -0.18712042
0.18344513 -0.72067016 0.21586314 0.10658049 0.027971197 -1.1931329 -0.47397423 -0.37285295
0.047352243 0.08673898 0.23827046 0.04988718 0.057136003 -0.14286305 0.55852956 0.110482454
0.026442787 0.07961267 -0.2189301 0.46436802 0.004617563 -0.5850182 -0.55472344 0.24847968
-0.09145662 0.12622914 -0.35751814 0.1123475 -0.08740015 -0.055662613 0.11478906 0.27632532
0.73034865 0.70292944 -0.41590148 0.03615114 -0.15615506 -0.09125016 -0.10683815 -0.5505482
00000000: 4d70 253e a565 5d3d 2e52 e8bb 870a a7bd
00000010: d378 06bf 24df 4ebe 4f05 c2be bf88 f3be
00000020: 6391 0d3e 06d5 873e 7530 d0bc a3ec d8bd
00000030: d684 f2bc 63c3 48be e2f9 6dbd 128f 383c
00000040: c2ae b9bd d7cf f13e 70cd af3e 577e bcbe
00000050: f579 723e b14c a33e b0c7 ae3d 7472 3a3d
00000060: 52b5 55bd 5181 c1bc 3005 c9be d481 0b3e
00000070: cc48 c73d dc14 27be a459 39bf 858f f3be
00000080: e375 f23a 4c1f 5bbe 9730 903e 7fe7 22bf
00000090: 168c c9be ca80 80be 0b6d bbbd e2db 87bd
000000a0: 72f1 50bd 3cb6 90bd 2882 093d 08e9 47bd
000000b0: c2bb 083e d842 a83e cbf8 babe 7dd3 76be
000000c0: 3e22 4a3d 9bdb f13d 71ca babe d9b0 71bf
000000d0: cf92 cebe a2d6 58bd 3611 e6bd 5d8e b2be
000000e0: 6c7d 1bbe f410 463f 4ab1 3d3e f996 913d
000000f0: 872c 62bd a673 ea3d d036 19bf 1980 d6be
00000100: b6b9 333e a93e ea3e 4263 28be 0a89 b0bd
00000110: 1429 d7be 147c 74bd 92c4 d63d a765 943d
00000120: 1a9a 133d f896 3d3f 442b c6be fdf3 6dbf
00000130: fd77 0ebe 339a 28be dc9a 7b3e 371d 123d
00000140: e476 333e f0b4 85bd be98 c63e 35ad 7abf
00000150: be1e 41be ee2f 9b3d 3c64 313d 2dbc 2ebf
00000160: a5a3 21bf a94c c63d d563 83bd c455 8bbd
00000170: e77c debc 0279 c53d 411b aabd e91b d1bd
00000180: e852 823e 8ff2 ccbe 7e93 97be 0d0e b13e
00000190: 0006 b9bd 4778 b7be 0c73 f8be ceee 17bd
000001a0: 34fe 91bc 6952 5bbd 46ad e13e 3eb1 793e
000001b0: b01a f3bd 0622 cbbd 5293 ce3e bd12 11bf
000001c0: cfa2 1fbf 1157 423e 1b2c 8d3d 59a2 0fbf
000001d0: 6d7d 363d ff6a 8e3e 36f4 e8be 7807 67be
000001e0: 06d8 f0be e9ab a8be 53be d43e f3c2 c9be
000001f0: 9ef3 d23c 7bda 2d3e ed99 c03d 9a16 da3d
00000200: 7171 f0be afae b2be 6863 a3be 3f20 a3bb
00000210: adbe 823c 3ea4 a13d 97bf d23e ccad 903e
00000220: 2e87 353e 3331 47be ed42 153d 90ce b23b
00000230: 79ff 38bf 3893 753c 6361 bbbe 0c3b 33be
00000240: a0ec 55be d0e9 80bf 1d08 80bf dff8 db3d
00000250: a925 92bd dad4 edbe edf1 653e fc2a 02bd
00000260: 3d04 193c 2c39 5e3e a122 d73e 226c 4bbd
00000270: 15a1 19bf 5899 e1be 42cb d53e fabc d83e
00000280: c2d0 d33e 9598 a43e ffdb a9be 5f3a b73d
00000290: f70f 9e3e 7765 d13e 4675 b6bb 18df 6bbe
000002a0: 603e a5be 1474 463d 0e36 2cbe 92e0 593e
000002b0: c686 1bbc 6a9a aabd 27b0 ebb7 21ef ac3e
000002c0: c8ef 07bd 86ab afbe fdf7 bc3d d7eb 753e
000002d0: 6d55 79be c845 96be 06ef b13e 8953 973e
000002e0: 63b1 363e faee 90be db7f 1cbc dd82 e4be
000002f0: 504e 703d 7c8a 1dbe 5699 74bd 543f 993e
00000300: 7771 f3bc bbab e0bd 1e18 5c3e f8d3 7b3b
00000310: 9977 e43e 4142 6b3d a407 adbe 2a3e a0be
00000320: 3979 6cbf fe09 bbbe 25d3 b73d f4db c83d
00000330: 600d 893d d9f0 c43e eda2 3c3c aa67 363e
00000340: 0402 83be e772 45bd ff7d 02bf 96ab b4bc
00000350: 5d02 d73e 6d14 663d 66f6 903e 7f9c 3fbe
00000360: 0ad9 3b3e d77d 38bf 3a0b 5d3e df46 da3d
00000370: da23 e53c 94b8 98bf c0ac f2be 95e6 bebe
00000380: 6df4 413d 35a4 b13d 2cfd 733e 8056 4c3d
00000390: 7107 6a3d b14a 12be cbfb 0e3f a044 e23d
000003a0: 8b9e d83c f80b a33d 362f 60be a5c1 ed3e
000003b0: ed4e 973b c1c3 15bf 5b02 0ebf 7571 7e3e
000003c0: 9c4d bbbd 3642 013e 9e0c b7be 7216 e63d
000003d0: dafe b2bd 7bfe 63bd 8716 eb3d 837a 8d3e
000003e0: 21f8 3a3f 2ff3 333f 0af1 d4be 3813 143d
000003f0: 1de7 1fbe 5de1 babd f6cd dabd baf0 0cbf

layer2.bias f4 [64]
0.020029109 0.083893 0.0660401 0.08129926 -0.008009425 0.23382638 0.14658767 0.10418604
0.3358881 0.30665848 0.04050777 0.035056446 0.114944376 0.029312195 -0.011731294 -0.005983294
0.22173677 0.112273596 0.16041975 0.3068832 0.30690765 0.07970121 0.049105573 0.124727696
0.059773885 0.09662613 0.06792478 0.006576379 0.027139558 0.33705044 0.12333589 -0.3959179
-0.29989755 -0.035302967 0.047289707 0.023820372 0.12177771 0.30287352 0.100583956 0.08722102
0.24530919 0.007658823 0.026618881 0.13530143 0.13881394 0.3289227 0.061174635 0.0414518
0.08487279 0.04457883 0.07501268 0.051124487 0.32443246 0.13672963 0.06174963 0.107163034
0.08062026 0.029855968 0.010306975 0.31791678 0.2188458 0.05536771 -0.4539045 0.08631075
00000000: 1614 a43c 18d0 ab3d 0840 873d 3a80 a63d
00000010: f739 03bc 2f70 6f3e 141b 163e 7e5f d53d
00000020: 86f9 ab3e 5702 9d3e 7aeb 253d 5997 0f3d
00000030: f567 eb3d 2120 f03c 9d34 40bc 820f c4bb
00000040: f70e 633e b3ef e53d 1345 243e cb1f 9d3e
00000050: 0023 9d3e 633a a33d ed22 493d 3c71 ff3d
00000060: 76d5 743d ece3 c53d 261c 8b3d aa7e d73b
00000070: c753 de3c e091 ac3e 8797 fc3d c0b5 cabe
00000080: 2c8c 99be d899 10bd dab2 413d f122 c33c
00000090: 9866 f93d 3d12 9b3e f6fe cd3d efa0 b23d
000000a0: 5532 7b3e ddf6 fa3b d70f da3c 758c 0a3e
000000b0: 3e25 0e3e 8e68 a83e 4192 7a3d 5dc9 293d
000000c0: c9d1 ad3d 4b98 363d 3fa0 993d e967 513d
000000d0: 031c a63e da02 0c3e 2eed 7c3d 4b78 db3d
000000e0: 3c1c a53d 8194 f43c 96de 283c fdc5 a23e
000000f0: 1d19 603e 40c9 623d 2c66 e8be b1c3 b03d

output_layer.weight f4 [1, 64]
-0.6030951 0.37919036 -0.57491803 -0.3115664 -0.453985 0.76992875 0.4784826 -0.22606766
1.4157887 1.0394181 -0.27332613 -0.535957 0.7669343 -0.23495609 -0.47970793 -0.45142138
0.92940074 -0.38409507 0.5798038 0.67033756 1.198264 -0.30503687 0.39776486 0.53208816
-0.30959436 -0.5924356 0.7516292 -0.54792917 -0.8154881 1.2811697 0.43127933 0.6423841
0.81534046 -0.46318305 -0.72083217 -0.3059831 -0.6529402 1.573375 -0.29152963 -0.35160795
0.9033916 -0.31818026 -0.37808403 0.73075294 0.41028008 0.8722539 -0.46466643 0.6655109
-0.29234493 -0.28673717 -0.25678417 -0.3041197 0.9332508 0.4115963 -0.2748947 -0.36343396
-0.36116883 -0.42155445 -0.41136125 0.74249434 0.45610926 -0.23618993 0.93575567 -0.25308996
00000000: 7164 1abf 3d25 c23e d42d 13bf a285 9fbe
00000010: b970 e8be 0d1a 453f acfb f43e 487e 67be
00000020: 9038 b53f a70b 853f 67f1 8bbe 7a34 09bf
00000030: ce55 443f 5498 70be 479c f5be b420 e7be
00000040: 35ed 6d3f 1ca8 c4be 066e 143f 3e9b 2b3f
00000050: b760 993f cb2d 9cbe d6a7 cb3e ee36 083f
00000060: 2783 9ebe dca9 17bf c56a 403f 1645 0cbf
00000070: d4c3 50bf 5efd a33f a5d0 dc3e 4973 243f
00000080: 27ba 503f 5426 edbe 7588 38bf d1a9 9cbe
00000090: 1727 27bf 5a64 c93f 5f43 95be f505 b4be
000000a0: ac44 673f 86e8 a2be 3b94 c1be a012 3b3f
000000b0: 3b10 d23e 084c 5f3f c2e8 edbe ec5e 2a3f
000000c0: 3cae 95be 37cf 92be 3779 83be 94b5 9bbe
000000d0: 86e9 6e3f c0bc d23e 00bf 8cbe 0414 babe
000000e0: 1feb b8be fcd5 d7be f19d d2be 1c14 3e3f
000000f0: 2787 e93e c6db 71be af8d 6f3f 0295 81be
