results/model.pth (torch, 95549 bytes, 5 tensors)

layer1.weight f4 [128, 115]
00000000: 555b 5fbf c67f b73e 4fa1 9d3f 591e db3e
00000010: 8c7e 69be f56c fc3e 2735 fe3e 96e3 c6bd
00000020: 41cd 13bf 5426 a4be 5c38 59be 086c ddbe
00000030: 56f2 4f3d 4518 9dbe 41b0 3d3d b1d2 fb3d
00000040: 7b45 2bbf 9f6e 51bd b0c4 75bd 83a0 48be
00000050: 517c a83e 3c2d ccbd 90c2 3b3d 65e5 5cbe
00000060: 2aa5 2cbf cfcc ab3e f47f 163e 7672 a33e
00000070: 687f e73d a9f4 603e 9fa5 e7bd 9763 b6bd
00000080: bf42 e6bd 9b7f 5b3e 1bf2 d5bd 74e4 9fbd
00000090: 602b 073e f222 9abc bcba 1abe 0a7d c93d
000000a0: 3f7e c13d 4ddd aa3d 9549 913d 0be2 17bd
000000b0: 7546 583d a09e 00be 3ae9 97be a48a 13bc
000000c0: b38a aa3d 22f3 8fbc fd1f e23d 2615 a63d
000000d0: 250c e5bd 3cc9 2ebe fdab 7c3c 6d5a 813b
000000e0: 4cf7 c93d 5d4a 003e a441 24bf ecfc 5f3d
000000f0: 02f7 033e 1cd9 b83c 77d3 983e 7c8e 1abd
00000100: ee6d f73c ebc3 903d b4a9 3d3d b64f 07bb
00000110: 2674 a03d 7703 0d3e 14b7 913c 5734 793d
00000120: a4e0 1f3e d398 1abc 6cbc 1f3e abdf 3b3c
00000130: 862e 02bd 0c50 5abe 78e7 2b3e 030b ad3d
00000140: b685 053d 3744 473c 5b3b ca3d 49ce 173e
00000150: 5b3f 113d 07e2 ba3b c415 0b3e cf66 42be
00000160: 91f9 81bd b978 5c3e 34ba 0f3d bf4a b33d
00000170: 3e2d b73d b010 64bd a2c3 4bbe 94a1 88bc
00000180: 94bc a8bc 0fb0 2ebe c4a9 193d 6ea5 d33c
00000190: 5a1e 0f3e c2b5 2b3e 69dc 0b3e 2e45 b33a
000001a0: 9c43 953d 1793 6e3d b131 163d cacc b03d
000001b0: d499 08bb 4486 3b3e adc4 b7be e84b 0cbe
000001c0: cf5d a5bd 40cb 02be 0aba fa3d 6759 87bf
000001d0: 35d2 693e bd3a 513e 8d31 003f 09df 9b3c
000001e0: 4ee6 6d3e e636 703e 8cc0 383b 0c84 27be
000001f0: ddd2 23be 257c d03b 07f3 02bc b363 f43e
00000200: db3f 813e 2577 2abe b229 b03c b192 c3be
00000210: 619a 803d 643f 50be a563 8dbe 624b dc3e
00000220: 6e8b ae3d c12b 75be 73fc 4bbe 4ada f0be
00000230: 7ab3 9a3e 77ea 2f3e ebdb c33d 7c68 083c
00000240: 6951 d43e 7663 6dbc 24ba e2bb f18f 88be
00000250: 2bef b73d 9a67 09be 92e8 9dbc a8d6 9b3d
00000260: b9b6 69bd dc9a babd d892 d83c 6697 153e
00000270: bbf1 fe3d 30c4 dc3c 6afe 043e 2f0d d43c
00000280: 40ef c0bd 6ffc bfbe 6327 e43c aab1 143e
00000290: b64e 913d 13f0 e6bc 4d2e d73d a243 0b3d
000002a0: 0755 cbbd 77c5 09be 430c c73d c252 da3d
000002b0: db4e 4d3d a652 f53c 0018 0b38 2524 ea3d
000002c0: 0ab6 8fbd ba0a d23d 7988 873d 6124 093e
000002d0: c626 5b3c 3318 fa3d 9ee1 0b3e 7370 003e
000002e0: e2cc 8c3d 4bc1 163e f84b 093e 8e9c 923d
000002f0: 1ac8 ed3d 6fe0 193e 2b63 e13d 4e2f 7a3e
00000300: a3f7 9abd e220 093e e48d d4bc bfee 9fbc
00000310: a983 f8bc 44bf f83d cef9 353e 7faa 7f3c
00000320: e1b5 203e c6d6 153e 807b 803c b98f 98be
00000330: 7ebe 4cbd 7db8 54bd 50bd b43d b583 b43d
00000340: c5dd 9a3d 4c93 ac3b 2e20 6abd bcfc 7e3d
00000350: 90ee 13be abd0 a1bd 30d5 1bbe 8062 133d
00000360: 0a12 143e e674 d13d 866a 0a3d 7c88 a23d
00000370: 4418 41be fab3 833d 2f9b e73d 3bb5 253d
00000380: 6230 f33d 1d42 20be be56 d3bd 258d 7c3d
00000390: 0519 ab3c d056 c33c 3782 fc3d 0e56 8bbc
000003a0: 2ed2 b0bf ee22 363f d1c8 043c 25eb 133e
000003b0: b5c2 033e 7ceb 94be 76f7 92be 3100 873e
000003c0: 8cc5 d73b 1539 bbbe c8b9 af3e f9da 813f
000003d0: 26d4 78bd 2dde 953e 2cb2 2e3e d537 323d
000003e0: c974 a43d d994 1c3d aab6 41be 6162 babd
000003f0: bb89 44bf 2b8f 8cbf afe9 f7be 4079 04bf
-0.87248737 0.3583967 1.2314852 0.4279659 -0.2280218 0.49301878 0.49649927 -0.09711377
-0.5773507 -0.32060492 -0.21212906 -0.43246484 0.05076822 -0.3068258 0.046310667 0.122960456
-0.66902894 -0.051130887 -0.06000203 -0.1959248 0.32907346 -0.09969565 0.045839846 -0.21571882
-0.6743952 0.33554694 0.14697248 0.31923264 0.11303598 0.2196833 -0.113108866 -0.08905714
-0.112431996 0.21435396 -0.104465686 -0.07807246 0.1320014 -0.018815491 -0.15110296 0.098383024
0.09447908 0.08342991 0.07094113 -0.037080806 0.052801568 -0.1256051 -0.29670125 -0.0090052225
0.08327236 -0.01757199 0.110412575 0.081095025 -0.11183957 -0.17068952 0.015421865 0.003947547
0.09861621 0.12528367 -0.6416266 0.054684564 0.12887195 0.022564463 0.29848835 -0.03773354
0.030203786 0.070686184 0.04630442 -0.0020646877 0.078346536 0.13770853 0.017787494 0.06084093
0.15613037 -0.00943585 0.15599221 0.011466901 -0.03178265 -0.21319598 0.16787517 0.08449366
0.03259822 0.01216226 0.098746024 0.14824785 0.03546081 0.005703214 0.13582522 -0.18984531
-0.06346429 0.21530427 0.035089687 0.08754491 0.08944176 -0.055679977 -0.19898847 -0.016678609
-0.020597734 -0.17059349 0.037515417 0.025835719 0.13976422 0.16768554 0.13658299 0.0013677233
0.07288286 0.058245745 0.036668483 0.086328104 -0.0020843642 0.18312937 -0.3589224 -0.13700831
-0.08074533 -0.12772846 0.122425154 -1.0574158 0.22834094 0.20432563 0.5007561 0.01902725
0.23232386 0.23458442 0.0028190939 -0.16358966 -0.15998407 0.0063624554 -0.007992513 0.47732314
0.2524403 -0.16647013 0.021504257 -0.38197854 0.062794454 -0.20336682 -0.27615085 0.43026263
0.08522688 -0.23942472 -0.1992052 -0.4704154 0.30215055 0.17179285 0.095634304 0.008325692
0.4146836 -0.014489045 -0.0069191623 -0.2667232 0.089811645 -0.13418427 -0.019275937 0.07609302
-0.057059024 -0.09111568 0.026437208 0.14608535 0.1244845 0.026949018 0.12987676 0.025885193
-0.09420633 -0.3749728 0.027850812 0.14520898 0.07095091 -0.028190648 0.10506878 0.034000047
-0.09928327 -0.13454233 0.097191356 0.10660316 0.05012403 0.029946636 3.3162534e-05 0.11432675
-0.07017143 0.10255952 0.06617827 0.13392784 0.0133759435 0.12211647 0.13660285 0.12542896
0.06875016 0.14722173 0.13407886 0.07158767 0.11610432 0.15027021 0.11005243 0.24432108
-0.07566764 0.1339145 -0.025946565 -0.019523023 -0.030336218 0.12145856 0.17771074 0.015604614
0.15694381 0.14632711 0.01568389 -0.29797152 -0.049986355 -0.051933754 0.08825171 0.088141836
0.075618304 0.0052665826 -0.057159595 0.062252745 -0.14446473 -0.079011284 -0.15218043 0.03598261
0.14460006 0.10227375 0.033792995 0.079361886 -0.18856913 0.06430812 0.11308896 0.040456038
0.11874463 -0.1565022 -0.10319279 0.061658043 0.020885954 0.023845106 0.12329524 -0.017008808
-1.3814142 0.7114705 0.008104519 0.1444517 0.12867244 -0.2908591 -0.28704423 0.26367334
0.0065848287 -0.36566988 0.34321427 1.014495 -0.060749196 0.2927107 0.17060155 0.043510277
0.080300875 0.03822789 -0.18917337 -0.091007955 -0.7677266 -1.0981191 -0.48420474 -0.5174751

layer1.bias f4 [128]
00000000: f50c e93c edaf 2dbe f616 913c 591a 1a3c
00000010: 839a 4cbe 1d14 67be 9365 c43c c4f2 12be
00000020: 8d75 1abe 5a04 053d e0e9 4cbe 5e8e c4bb
00000030: 1d31 26bd c976 f63c bed7 92be 2b3c 06be
00000040: c608 6abe 3f15 733b c79e 36bd b68a 76be
00000050: 3259 e7bd 8cf0 ecbc ba63 4fbe 3e11 75bd
00000060: b06e 04be bed0 50bc 99ea 70bd 560d 963d
00000070: 4831 bbbd 53b6 30bd c51f 8c3c 2b90 e03c
00000080: 6ac9 a5bc 49ec d4bd ebd2 edbd e925 e4bd
00000090: 18ed 15be 5664 aabd 647e 00be 3c13 a4bd
000000a0: 8a27 80bd 7b93 dbbd 2047 28be 381d 9bbb
000000b0: 5091 d73b 9e80 b3bd a2d8 a9bd 384f 51be
000000c0: 8be8 50be 54d0 febd ea05 1fbe 2a9a 0fbe
000000d0: 0ba1 02bd ae50 7b3d b161 17be 3cab 2a3d
000000e0: ef35 25be 2bdb 07be 80a7 47be e3cd 44bc
000000f0: 5587 39bd 2207 9c39 9da1 5fbc 1b24 64bc
00000100: a861 19bd cf61 01be b983 c13c 85ec f4bd
00000110: eee5 efba aeb0 5bbd 5274 a0bd adcf b7bd
00000120: 28c3 c3bc 2051 11be 4dd5 7cbd db37 ecbc
00000130: 7a1d ab3c 6667 debd 0323 7b3c 8158 53be
00000140: 2011 07be d3c0 8abd b2fb 1dbe cf65 1bbe
00000150: e9a8 94be 2c29 9abc 1359 07be 5caa 343e
00000160: 684a 0f3e 4186 80be 143d 52be 0d4f 08be
00000170: 9250 f1bd 8f6c 12bc b55d 24be 5447 0cbd
00000180: 8e9e 3d3d 7bbe c4bc 563b 8f3d d66b 73bd
00000190: f6ed 2dbe 6549 05be 57de c9be 43d7 a43c
000001a0: 303e af3d 8910 9dbd 28f1 cbbd b62a 22be
000001b0: e5ed 32be a64f dabd 3185 50be 150e 64bd
000001c0: ec88 22be f9b2 f93c 70d8 41bd bae7 13be
000001d0: 639e a5bc 4565 20be bdde d9bd 73fb e83d
000001e0: 7b5e 4fbe c382 b8bd e878 9bbd 348f 013d
000001f0: 4c92 d13c de05 68be a1b2 073e 1c9f ebbd
0.028448561 -0.16961642 0.017711144 0.009405696 -0.19980817 -0.22566266 0.023974216 -0.1435042
-0.15083905 0.032474853 -0.20011091 -0.005998417 -0.04057418 0.030085938 -0.28680223 -0.1310889
-0.2285491 0.003709152 -0.044585016 -0.24076352 -0.112963095 -0.028923295 -0.20252886 -0.059830897
-0.12932849 -0.0127450805 -0.05881748 0.073267624 -0.09140259 -0.043142628 0.017104993 0.027412495
-0.020237643 -0.1039663 -0.11612495 -0.11140043 -0.14641225 -0.08319919 -0.12548214 -0.08011481
-0.062575415 -0.10721489 -0.16433382 -0.0047337078 0.006578602 -0.08764766 -0.082932726 -0.20440376
-0.20401208 -0.12442079 -0.155296 -0.14023653 -0.031891864 0.06135624 -0.1478336 0.041667208
-0.16133855 -0.132672 -0.1949749 -0.012011978 -0.04529508 0.00029759953 -0.013649371 -0.013924624
-0.037446648 -0.12634967 0.02362238 -0.11959175 -0.0018302777 -0.05363529 -0.07834686 -0.08975158
-0.023896769 -0.14191103 -0.061726857 -0.028835228 0.020888079 -0.108595654 0.015328172 -0.2063923
-0.13190126 -0.067750596 -0.15428045 -0.15175556 -0.29035118 -0.01881846 -0.13217573 0.17643112
0.13993227 -0.25102428 -0.20531112 -0.13311405 -0.11782946 -0.008937015 -0.16051371 -0.03424771
0.046293788 -0.02401661 0.06993739 -0.059429012 -0.16985306 -0.13016279 -0.39427444 0.020122176
0.08556783 -0.076691695 -0.09958106 -0.15836605 -0.17473562 -0.10659723 -0.20363308 -0.055677492
-0.15872544 0.030480849 -0.04732555 -0.14443865 -0.020217126 -0.15663631 -0.10638187 0.11376085
-0.20250885 -0.09009316 -0.075914204 0.03163071 0.025582455 -0.22658488 0.13251735 -0.11504957

layer2.weight f4 [64, 128]
00000000: a39d 13bf 6f93 97be 28ea 53bf 9678 bfbe
00000010: a91a e03d 2cf4 69bd 63c6 033f 4f6a 91bf
00000020: 8177 01bd 6e2c 503e 611d a4be f8c6 cabe
00000030: 97ee 473e 65f6 0bbf 7bf6 4d3e 41af 993d
00000040: 2289 8a3d c6f8 1a3e 960d 52bf 27cc 3b3e
00000050: c862 97be 5225 cc3d 2a5c aebc 5d5c 213d
00000060: 6981 073f afca 9bbe 411e b83e 9540 ebbe
00000070: 6b44 8dbd c901 203d f681 523e 413b 0fbf
00000080: 1491 363f 2dbe d7bd 0293 d13e a229 363e
00000090: fbd5 ac3e c44f 7e3f b949 51be 3c83 fcbe
000000a0: e620 0ebf b365 da3e d1c0 9d3d 06d2 a8bd
000000b0: ce7c f4be 00bd f4bc 8f60 043e 2820 d73d
000000c0: 2f2b a53c 5520 2fbf ad6e 2cbe 8ba0 85be
000000d0: d289 f73d c000 bb3d a593 9c3d cd10 063f
000000e0: 7341 6ebe 6001 c43e ff31 e6bd 3398 a63e
000000f0: 47ac a4be 4608 0dbf a5fc 7fbe d642 713e
00000100: 22ff 563d 0050 9ebc 4905 24be bd82 9abe
00000110: fb30 243e b1ed deba d9c1 7c3e f005 373f
00000120: 347a be3c 82ad edbd 01f8 b5be 9393 7ebe
00000130: 3e96 3b3e 95f3 5f3e caf1 c13d 936b 723e
00000140: c7dc f6be 358e ad3e d66f 4a3e 69d6 79bd
00000150: db9e 893e 7f1c 6fbe b4e8 cdbc 41a6 e6be
00000160: fb07 17bf 8f43 283d 5f3f f43e ac27 2ebf
00000170: 566d dbbe 3ca8 90bd 1b33 e0be 857e 3bbe
00000180: 7a22 0abf a0c9 413f c407 153e 3040 0cbf
00000190: 2364 aabe fa89 2ebe 5af1 773e e866 b0be
000001a0: 12fa e2bd d994 01bf b918 393c 37f6 093e
000001b0: 11e3 80be 679e 773e 378b 453e 9b51 373e
000001c0: f5fe fd3c 4ae3 a9be cbfe b93e 10df e6ba
000001d0: e97b 163e 4edd 1ebe 7e83 183f 0075 87be
000001e0: 584d 483e 720f fd3c e72f 60be 84f3 73be
000001f0: 00a5 133f 2e67 3c3d 0a21 fc3d 444c 58be
00000200: 1169 d5be 7cc2 f1bd 57a8 a7be 18b9 b0be
00000210: c51b 1ebe 7de7 9c3e d554 723f a287 8abe
00000220: 49b0 493e f7dd a9bd 3eeb 8bbe 9f44 9bbe
00000230: a044 753e 8407 8cbd e9d3 c23e 8677 ea3b
00000240: b83d 8a3e 54f9 4cbd 658f 0abe 67c0 383e
00000250: 8d6a cdbe 8ec9 1b3e 6541 8b3c f39b 7f3e
00000260: e555 113f f277 fdbd 653e a33c b4b6 9b3d
00000270: db51 0ebe d514 1a3e b811 8a3d ae57 12bd
00000280: 2c94 373f a81e c03e a98a 483e 8892 0f3e
00000290: 4692 e13e 0b5d 1a3f e194 1dbe 929e 21be
000002a0: d0cf 80be a8fa 573f 1a14 483e 6eb1 4a3e
000002b0: 72b5 c13d 2a7b 2bbd 1734 053e 57ed 79bd
000002c0: 2401 dd3d dfb8 bdbe 9517 bbbc d955 c7be
000002d0: 5be0 7a3e b8d5 d7bd dc92 353e aadc 9b3e
000002e0: d120 623c 7636 5f3d 4276 263e 7751 8d3e
000002f0: b739 0cbe 103a 84bd fe4e 40be ba37 63be
00000300: 62a2 b3be 3477 b2be d7c5 253c ce91 19be
00000310: 93bb 95be fc74 f53d 61cf 8e3e a8d2 813f
00000320: e2b3 2f3e cfc2 ba3c 8241 1d3d fe1e 38be
00000330: a9ac 12bd 19af 073e e7b4 113f c11f f93e
00000340: e6cf 12be 52eb b83e 6fa6 003e ae32 f93d
00000350: 7c79 2fbe f43c c23d ab52 8d3e 8694 febe
00000360: 2000 c7bd 12e6 c3bb 499f e03e bec7 c0be
00000370: 31af 89be 3dc4 eabc 2ada 04be f009 073e
00000380: d053 28be d32c 493f 1534 8cbd a2b9 89be
00000390: 4b01 29be 208b f23d aa5e c63e 31a9 ffbc
000003a0: f5b4 093f 65fc 7b3c 5815 663d 0fe8 fc3e
000003b0: e4b5 90be e840 f53e 1e77 3e3e 06d5 bc3e
000003c0: ddf6 333e 6efb 0dbd d1b4 c93e 90d0 273d
000003d0: 4593 433e f141 8dbd 4381 cb3e b73b 66be
000003e0: ac0c b93c cb04 c03d 2ea6 a0bc eedd 80be
000003f0: 492f 183f 32dc 67bd e3a2 91be bbff 22bf
-0.5766241 -0.2960467 -0.8277917 -0.37396687 0.10942585 -0.057117626 0.5147459 -1.1360568
-0.03160811 0.20329449 -0.32053664 -0.39604926 0.19524609 -0.54672843 0.20113556 0.0750413
0.06764437 0.15133962 -0.8205198 0.18339597 -0.29567552 0.09968056 -0.021284182 0.039394725
0.5293184 -0.30428073 0.35960582 -0.4594771 -0.06897815 0.039064202 0.20557389 -0.5594979
0.7131512 -0.1053432 0.4093247 0.17789319 0.33757004 0.9934046 -0.20438279 -0.49318874
-0.5551895 0.42655715 0.077027924 -0.08243184 -0.47751468 -0.029875278 0.12927459 0.1050418
0.020162193 -0.6840871 -0.16839094 -0.26099047 0.12086834 0.091310024 0.076453485 0.52369386
-0.23267154 0.382823 -0.11240005 0.32537994 -0.32162687 -0.5509075 -0.2499872 0.23560652
0.052489407 -0.019325256 -0.16017641 -0.3017787 0.1603431 -0.0017008093 0.24683322 0.71493435
0.02325163 -0.116053596 -0.35540774 -0.24860983 0.18319032 0.21870263 0.09469946 0.23673849
-0.48215315 0.33897558 0.19769225 -0.060995493 0.2687901 -0.23350714 -0.025135376 -0.45048717
-0.5899655 0.041080054 0.47704598 -0.68029284 -0.42856854 -0.07063338 -0.4378899 -0.18309982
-0.5395886 0.7569828 0.14553744 -0.5478544 -0.33279523 -0.17044821 0.24213162 -0.3445351
-0.110828534 -0.5061775 0.011297398 0.1347283 -0.25173238 0.2418152 0.19291387 0.17902224
0.031005362 -0.3318122 0.36327204 -0.0017614085 0.14695705 -0.15514109 0.5957564 -0.2645645
0.19560754 0.030891154 -0.21893273 -0.23823363 0.57673645 0.045996837 0.12310989 -0.21122843
-0.41681722 -0.11804673 -0.3274562 -0.34516215 -0.1544028 0.30645362 0.94660693 -0.27056605
0.19696154 -0.082942896 -0.27327913 -0.3032579 0.2395196 -0.06837371 0.380523 0.0071553616
0.27000213 -0.050042465 -0.13531263 0.18042146 -0.40120354 0.15213606 0.016998956 0.24961834
0.5677169 -0.123763934 0.019927213 0.07603207 -0.13898413 0.1504701 0.06741661 -0.03572815
0.7171047 0.3752339 0.19584145 0.14020741 0.4405691 0.6029822 -0.15388824 -0.15783146
-0.25158548 0.84366846 0.19538918 0.19794247 0.09458436 -0.041865505 0.13008152 -0.06101736
0.10791233 -0.37055108 -0.022838393 -0.38932684 0.24499647 -0.105388105 0.17731804 0.3044179
0.013801769 0.054495297 0.1625605 0.27601215 -0.13693891 -0.06456387 -0.18780133 -0.22189227
-0.35084826 -0.3485657 0.0101179695 -0.14997026 -0.2924467 0.119852036 0.27892593 1.0142412
0.17158464 0.02279797 0.03839255 -0.17980573 -0.035809193 0.13250388 0.5691666 0.4865704
-0.1433712 0.36117035 0.1256349 0.121678695 -0.17136186 0.09484282 0.27602133 -0.4972269
-0.09716821 -0.0059783543 0.43871525 -0.3765239 -0.26891473 -0.028658027 -0.12973848 0.13187385
-0.16438222 0.7858402 -0.06845871 -0.2689944 -0.165044 0.11842942 0.38744098 -0.031208606
0.53791744 0.01538 0.0561727 0.49395797 -0.28263772 0.47901082 0.18600127 0.36881274
0.1757464 -0.03466361 0.39395764 0.040970385 0.19099148 -0.06897343 0.39747056 -0.22483717
0.02258905 0.09375914 -0.01961049 -0.2516932 0.5944715 -0.05660648 -0.28444585 -0.63671464

layer2.bias f4 [64]
00000000: f91d ec3d a80c 87be af9a b93d 4279 a73c
00000010: 02c2 ef3d 5a7a 6ebb f719 293e e12a 973d
00000020: 7ea0 113e 4fa1 c03d 86fa 813d bdc9 cc3d
00000030: 8954 a73d b5b8 0d3e ddb2 ec3b dab8 313e
00000040: e2a9 933d 6ba4 4c3e 06f2 3e3d fe10 903d
00000050: e3ab 403e 247b 313e e390 253e 750f e63d
00000060: b84f 303c 1198 763d 8cfc 1d3e 8031 4e3c
00000070: 7a50 1b3e c4b9 e63d d9a7 343e 6718 e53d
00000080: 3751 cc3d a694 fc3d 1edf db3d 7583 f13d
00000090: e64a 063e b2b8 1b3e 64bf 923d 4724 8e3d
000000a0: e213 763d 946e 203e bd6d bc3d 9fcc c03d
000000b0: 6725 4e3e 8e0e 273e 09a5 373e 4738 d03d
000000c0: 1a95 d83d 939a bcbc b8e6 b43d 1e12 df3d
000000d0: fef8 b93d 07a2 613e 5789 253e 6675 1cbe
000000e0: 9a58 0d3e 5ce1 2e3e a472 f13c 6db2 3abe
000000f0: 578f a4be 22f5 bf3d 6ae2 143e e912 9a3d
0.11529154 -0.26376843 0.09062707 0.020443562 0.11706926 -0.0036388845 0.16513811 0.073812254
0.14221379 0.09405767 0.06346612 0.09999416 0.08170421 0.13839991 0.0072234706 0.17355672
0.07210137 0.19984595 0.04661753 0.07034491 0.1881557 0.1733213 0.16168551 0.11233417
0.010761194 0.060203616 0.1542837 0.012585044 0.15167418 0.11265901 0.17642154 0.11186295
0.09976428 0.1233304 0.107359156 0.117926516 0.13114509 0.15207174 0.07165411 0.06940513
0.060077555 0.15667182 0.092006184 0.094140284 0.20131455 0.16314146 0.1793405 0.10166984
0.10575314 -0.023022925 0.088330686 0.108921275 0.090806946 0.22034465 0.16165672 -0.15279159
0.1380333 0.17078155 0.02947361 -0.18232127 -0.3214061 0.09372927 0.14539495 0.07523138

output_layer.weight f4 [1, 64]
00000000: 6d7e 1abf 8638 34bf 4f2d dabe dad8 4b3f
00000010: e489 f3be 7467 f53e 17d0 3b3f 61d6 f0be
00000020: 424f 2b3f 97d9 02bf 4dec bdbe 359c 613f
00000030: ae3a e0be 883b fcbe f12e f4be 8140 143f
00000040: b994 1c3f b9a0 0b3f 4d3c 2e3f e9c9 1c3f
00000050: 1dde f23e cd85 2c3f 6d27 dcbe 02c7 f0be
00000060: f851 1cbf ce36 92be efb5 05bf 5eee ffbe
00000070: 5b03 f6be 4cd6 d9be 345c 22bf 7937 fcbe
00000080: 6305 0e3f b3a7 94be 82a7 263f f660 cabe
00000090: 4dec e1be 22ab 593f 95c7 4a3f 8304 cfbe
000000a0: bf98 333f 8fdc 163f 8dbc 1c3f d485 213f
000000b0: 2efa 333f c0ff 0d3f 4db0 103f 6fc6 debe
000000c0: 2615 88be a188 f6be 1c0a e6be 1fbf c4be
000000d0: dba1 063f ec52 1c3f 459d e7be 0ce2 a1be
000000e0: aaf5 dd3e 60f3 08bf d544 7abe 3ead 753e
000000f0: a42f 49bf 8ac9 0abf 6372 fd3e 6246 dfbe
-0.6034916 -0.7039875 -0.42612693 0.79627764 -0.4756614 0.4793049 0.73364395 -0.47038558
0.6691781 -0.51113266 -0.37094346 0.8812898 -0.4379477 -0.4926417 -0.47692063 0.57910925
0.6116443 0.5454212 0.6806076 0.6124559 0.47435084 0.67391664 -0.4299883 -0.4702683
-0.61062574 -0.28557438 -0.52230734 -0.49986547 -0.48049435 -0.42546308 -0.6342194 -0.49261072
0.5547697 -0.29034194 0.65099347 -0.395271 -0.44125596 0.8502675 0.7921079 -0.4043313
0.7015495 0.58930296 0.61225206 0.6309483 0.7030362 0.5546837 0.56519014 -0.43510768
-0.26578635 -0.48151115 -0.44929588 -0.38427064 0.5259072 0.6106403 -0.45237175 -0.31617773
0.4335149 -0.5349636 -0.2444032 0.23991868 -0.7858832 -0.54213774 0.49501333 -0.43608385
